pt_model.pth (torch, 409304 bytes, 4 tensors)

linear_relu_stack.0.weight f4 [128, 784]
-0.30233344 0.070629835 -0.09298732 -0.014179663 0.024017073 -0.003842361 -0.084010735 0.048344713
0.17035098 0.17094682 0.0013249362 -0.0009964895 0.0035031766 0.06262097 0.06724213 0.035947252
-0.0016582888 -0.0070438464 0.092741564 0.31501207 0.47656515 0.58878875 0.35810226 0.18311912
-0.064006574 -0.22388628 0.015171614 -0.11765914 -0.11123616 -0.037311368 0.079165086 -0.1257748
-0.13022219 -0.138802 -0.300865 -0.22255056 -0.28110686 -0.27425852 -0.12144082 0.034951285
-0.022052338 -0.10654709 -0.008069253 -0.019506138 0.11093617 0.14069787 0.09841248 0.0106846085
-0.029601032 0.10657331 0.20557699 -0.03942317 -0.27106377 -0.07000866 -0.070927724 0.15020964
-0.029203406 -0.028374286 -0.010345752 0.02454527 -0.118007004 -0.32943335 -0.41831234 -0.4656916
-0.2275844 -0.15424944 0.05289522 -0.023721596 -0.027170075 0.09543463 0.12658145 0.09485492
0.0048873057 0.1534043 0.030600257 -0.08081607 -0.123359315 -0.14196126 -0.098005 0.09719027
0.17462467 -0.10848202 -0.20559716 -0.14413926 -0.042793967 0.014491917 0.09213902 -0.017353667
-0.18871598 -0.19889152 -0.1818219 -0.19219652 -0.081140645 0.053186346 0.072303265 -0.04386791
0.102518134 0.08176604 0.022145737 0.108254254 0.06217875 0.055473935 0.12329474 0.012356469
0.058576766 -0.036552772 -0.022014402 -0.039429903 0.16764565 0.3190703 0.19837436 -0.2657002
0.041446544 0.22326957 0.070647106 -0.07991159 -0.2699821 -0.06295263 -0.0055506355 -0.13642515
-0.05763611 0.071263134 -0.028253425 0.07633103 0.1981872 0.20593792 0.154453 0.15019216
0.11802651 -0.07136417 -0.022345653 0.09661461 -0.025453882 -0.03310116 0.118127294 -0.09232737
-0.00316179 0.031925913 0.26684844 0.24718095 0.24862462 0.15189034 0.08160273 0.06680029
-0.000306264 -0.103348404 -0.08284049 -0.087880105 -0.064067274 0.043817837 -0.01056656 0.06629131
0.057789806 0.23488043 0.1918195 0.041758638 0.05804057 -0.028801108 -0.015758168 -0.004218035
-0.017984878 -0.07089755 -0.115618244 -0.086282484 0.0061060907 0.056766808 0.22193725 0.4379114
0.19760014 0.28310758 0.22423081 -0.001297487 -0.13977312 -0.100819096 -0.028064167 -0.009028993
-0.0084961 -0.028418696 0.03838451 0.09732957 0.027180638 0.17330582 0.13790748 0.06269576
0.06738452 0.008018461 -0.03398 -0.011856742 -0.023216678 -0.037557412 -0.09374067 -0.12277072
0.008262812 0.18809955 0.15457305 0.12542452 0.5091922 0.49045032 0.2690236 0.09849941
-0.034420475 -0.029606355 -0.04252777 -0.0767053 -0.11210815 -0.063613094 -0.017507369 0.13144247
0.10453406 0.12282454 0.11251297 0.06372496 0.053311188 0.073562354 0.036990955 0.046232678
-0.10627891 -0.03010749 -0.0044321883 -0.16616729 0.17015488 0.23875104 0.2704448 0.21724224
0.37455174 0.49447837 0.27527294 0.10783812 0.07968923 0.07317874 -0.021561263 -0.053978767
-0.04093219 0.049178265 0.13639879 -0.0014078672 0.014541692 0.052899048 0.11991864 0.0698976
-0.032132953 0.0011345588 0.08187485 -0.005083432 -0.13152334 -0.09234044 0.055288192 -0.035539806
0.04875534 0.24643244 0.21314082 0.10057441 0.07567761 0.35678825 0.34035107 0.19542691
00000000: 73cb 9abe 60a6 903d 2370 bebd d151 68bc
00000010: 74bf c43c 1fd0 7bbb d20d acbd 1b05 463d
00000020: 7d70 2e3e af0c 2f3e 7ba9 ad3a a49c 82ba
00000030: 8d95 653b 6c3f 803d 3eb6 893d 6d3d 133d
00000040: f05a d9ba 11d0 e6bb 4aef bd3d 4349 a13e
00000050: 5900 f43e dcba 163f 2e59 b73e 9483 3b3e
00000060: e115 83bd 7242 65be 5c92 783c 46f7 f0bd
00000070: c9cf e3bd ced3 18bd 4e21 a23d 1ccb 00be
00000080: f758 05be 1d22 0ebe fa0a 9abe 4be4 63be
00000090: 3ded 8fbe 9d6b 8cbe f7b5 f8bd 1429 0f3d
000000a0: 1ba7 b4bc 5c35 dabd e634 04bc 56cb 9fbc
000000b0: 8132 e33d 1a13 103e 7b8c c93d 7f0e 2f3c
000000c0: dd7d f2bc 1c43 da3d c682 523e 317a 21bd
000000d0: dfc8 8abe b360 8fbd 8e42 91bd 8ed0 193e
000000e0: fb3b efbc 3171 e8bc 3b81 29bc 2913 c93c
000000f0: a8ad f1bd 7dab a8be 092d d6be 216f eebe
00000100: e30b 69be 91f3 1dbe a9a8 583d cb53 c2bc
00000110: c793 debc 3b73 c33d 919e 013e 4c43 c23d
00000120: b125 a03b 0416 1d3e 64ad fa3c e582 a5bd
00000130: cfa3 fcbd 4b5e 11be d8b6 c8bd b10b c73d
00000140: cfd0 323e d22b debd 1088 52be 3e99 13be
00000150: ba48 2fbd 816f 6d3c 62b3 bc3d 4729 8ebc
00000160: c33e 41be 38aa 4bbe 852f 3abe 2acf 44be
00000170: 112d a6bd edd9 593d bc13 943d d6ae 33bd
00000180: 07f5 d13d f474 a73d fa6a b53c 68b4 dd3d
00000190: 25af 7e3d a338 633d f481 fc3d ca72 4a3c
000001a0: 31ee 6f3d 5cb8 15bd 8c57 b4bc 4081 21bd
000001b0: 4dab 2b3e 2f5d a33e a622 4b3e db09 88be
000001c0: dac3 293d c7a0 643e 6eaf 903d b0a8 a3bd
000001d0: 183b 8abe 4fed 80bd 1be2 b5bb 09b3 0bbe
000001e0: d713 6cbd 68f2 913d ba73 e7bc 7153 9c3d
000001f0: 96f1 4a3e 64e1 523e ed28 1e3e f9cb 193e
00000200: e2b7 f13d 6127 92bd 3b0e b7bc e1dd c53d
00000210: a984 d0bc 1595 07bd b9ec f13d 2216 bdbd
00000220: 0936 4fbb bfc4 023d 5ca0 883e 011d 7d3e
00000230: 7497 7e3e 2489 1b3e 551f a73d 97ce 883d
00000240: 0f92 a0b9 54a8 d3bd 46a8 a9bd 7cfa b3bd
00000250: b435 83bd 557a 333d 5d1f 2dbc bdc3 873d
00000260: 01b5 6c3d 7f84 703e 556c 443e 1b0b 2b3d
00000270: f3bb 6d3d 4df0 ebbc 4617 81bc 7137 8abb
00000280: 0655 93bc bc32 91bd 42c9 ecbd dfb4 b0bd
00000290: 9a15 c83b 5084 683d 8543 633e ec35 e03e
000002a0: b157 4a3e 7af3 903e c39c 653e 7010 aaba
000002b0: af20 0fbe 3e7a cebd d3e6 e5bc 57ee 13bc
000002c0: 3a33 0bbc 53ce e8bc 1339 1d3d ba54 c73d
000002d0: eea9 de3c 1577 313e 9e37 0d3e a266 803d
000002e0: e500 8a3d dd5f 033c 9d2e 0bbd c842 42bc
000002f0: e730 bebc cdd5 19bd 1cfb bfbd 376f fbbd
00000300: bf60 073c 2b9d 403e 6648 1e3e 496f 003e
00000310: 6c5a 023f 4e1c fb3e 76bd 893e 0fba c93d
00000320: 7cfc 0cbd 0789 f2bc 9931 2ebd ab17 9dbd
00000330: f598 e5bd 9547 82bd 9d6b 8fbc db98 063e
00000340: f415 d63d 6f8b fb3d 336d e63d 3b82 823d
00000350: d55c 5a3d dca7 963d d483 173d 7a5e 3d3d
00000360: c2a8 d9bd fca3 f6bc e43b 91bb c227 2abe
00000370: 153d 2e3e 277b 743e be77 8a3e c074 5e3e
00000380: 3fc5 bf3e 452c fd3e 93f0 8c3e 3bda dc3d
00000390: 1b34 a33d bcde 953d 3fa1 b0bc d718 5dbd
000003a0: 83a8 27bd 266f 493d 20ac 0b3e 2f88 b8ba
000003b0: 4740 6e3c acac 583d e797 f53d 7926 8f3d
000003c0: d89d 03bd 7ab5 943a 00ae a73d eb92 a6bb
000003d0: 0eae 06be fc1c bdbd df75 623d 3092 11bd
000003e0: aeb3 473d c958 7c3e 9641 5a3e f5f9 cd3d
000003f0: ddfc 9a3d f3ac b63e 7f42 ae3e fe1d 483e

linear_relu_stack.0.bias f4 [128]
-0.19917794 0.2927963 -0.049187094 0.09151891 0.55899644 -0.009397915 -0.05750516 0.03495517
0.046842646 0.3250265 0.32052112 -0.0015032239 -0.015577764 -0.2142682 -0.33169574 0.45383027
0.3887351 -0.1037427 0.21487668 0.37717175 0.20243074 -0.51869667 0.058955006 0.023603383
0.015775189 0.18121128 0.049594715 -0.40438083 0.16976129 0.43352395 0.48179322 0.21877635
0.4037676 -0.099035114 0.11227912 0.1337548 0.25801876 0.080821574 -0.035737075 -0.073794946
0.20711948 0.098529585 -0.51151747 -0.034757428 0.21078047 -0.19429278 -0.12940444 0.01649339
0.13406877 -0.084772095 0.45945358 0.025613107 -0.017829604 0.5274487 0.25049457 0.30736315
0.3812858 0.15222195 0.35170227 0.82796615 0.6262608 -0.033835754 0.3505414 0.2691402
0.42407545 -0.058196526 0.42976883 -0.2857519 0.074702516 -0.06937794 0.4869232 -0.015230189
-0.15553299 0.52203673 -0.06747628 0.29967144 -0.2321663 0.27641508 0.10846852 0.28606215
0.25607142 0.014624614 0.45445365 -0.0041254605 0.31293556 -0.26823136 0.22306411 -0.087864436
0.058680017 0.68286556 0.01770065 0.37627888 -0.08165806 -0.03712215 0.3516829 -0.038191028
0.38972065 -0.099770375 -0.16994576 0.1958455 0.041190002 0.2391972 -0.28125033 -0.45334262
0.5654632 0.15248133 -0.04133067 0.19804844 0.27368528 0.29657644 0.77041805 0.22694178
0.049368594 -0.1809364 0.5496567 0.41111037 -0.008779492 0.072595626 0.027231608 0.47425503
0.24833252 0.11350439 -0.08067002 0.26217693 -0.18267553 -0.21855001 0.39722595 -0.005235551
00000000: 4df5 4bbe 66e9 953e 6878 49bd 446e bb3d
00000010: 641a 0f3f b6f9 19bc 888a 6bbd 272d 0f3d
00000020: 13de 3f3d e069 a63e 581b a43e d307 c5ba
00000030: e139 7fbc 1f69 5bbe 06d4 a9be 715c e83e
00000040: 4908 c73e 0d77 d4bd a208 5c3e a81c c13e
00000050: 014a 4f3e 4ec9 04bf ce7a 713d e25b c13c
00000060: f83a 813c 738f 393e d423 4b3d 010b cfbe
00000070: e7d5 2d3e daf6 dd3e 9aad f63e e806 603e
00000080: a0ba ce3e ecd2 cabd 98f2 e53d 05f7 083e
00000090: 091b 843e c885 a53d 0a61 12bd ce21 97bd
000000a0: 2117 543e e1c9 c93d cff2 02bf ce5d 0ebd
000000b0: d6d6 573e b0f4 46be 9982 04be 251d 873c
000000c0: 5349 093e fe9c adbd 803d eb3e 94d2 d13c
000000d0: 640f 92bc e106 073f d340 803e b45e 9d3e
000000e0: e437 c33e 12e0 1b3e 5212 b43e 97f5 533f
000000f0: a152 203f 5c97 0abd 2a7a b33e bfcc 893e
00000100: 6b20 d93e 7b5f 6ebd a90a dc3e 134e 92be
00000110: a2fd 983d 0516 8ebd ff4d f93e 0b88 79bc
00000120: 0a44 1fbe 33a4 053f 0131 8abd 896e 993e
00000130: 01bd 6dbe 4786 8d3e be24 de3d bd76 923e
00000140: cb1b 833e 149c 6f3c 26ae e83e df2e 87bb
00000150: 1739 a03e 9f55 89be eb6a 643e 45f2 b3bd
00000160: 755a 703d 47d0 2e3f f400 913c a0a7 c03e
00000170: 573c a7bd 650d 18bd c80f b43e 326e 1cbd
00000180: 7789 c73e 6954 ccbd 4306 2ebe b98b 483e
00000190: d9b6 283d 1cf0 743e 0b00 90be 861c e8be
000001a0: 32c2 103f 1124 1c3e 594a 29bd 36cd 4a3e
000001b0: 7a20 8c3e ded8 973e 1e3a 453f 6d63 683e
000001c0: b936 4a3d 6447 39be 4db6 0c3f 0f7d d23e
000001d0: dcd7 0fbc 04ad 943d d214 df3c 8ed1 f23e
000001e0: e14a 7e3e fd74 e83d 5336 a5bd 0e3c 863e
000001f0: 4b0f 3bbe 93cb 5fbe 3361 cb3e fc8e abbb

linear_relu_stack.2.weight f4 [10, 128]
0.070311874 -0.19182558 0.06291443 -0.016032016 0.16802767 -0.075657636 -0.42079204 -0.22165674
-0.061180487 0.26348218 0.17337024 -0.08312165 0.06587891 -0.090685464 0.0184633 0.077087104
-0.15544851 0.07766611 0.19522427 0.09746507 -0.07223543 -0.046339955 -0.086066194 -0.051797945
0.0040173144 -0.095813945 0.018259976 0.105519764 -0.21546358 -0.44451293 0.28884596 0.01852666
0.050019 0.10887074 -0.14529319 -0.3953646 -0.22502191 -0.3520981 -0.025661323 0.18267792
0.08305856 -0.17155178 0.1827763 0.07913906 0.13000713 -0.029249469 -0.14212558 0.08934401
-0.13112067 -0.009787104 -0.014333946 0.053254325 0.059881493 -0.5352179 -0.1300301 0.06529286
0.10628198 0.02267207 0.08821503 0.15012577 -0.050885662 -0.059824046 -0.13826166 -0.33999357
0.18236226 -0.06339166 -0.3376092 -0.13472356 0.20510463 -0.08877339 -0.5739073 -0.0642103
0.23935819 0.17412998 0.03086009 0.026502486 0.011543535 -0.19556832 0.09080135 0.1963677
0.100273885 -0.029237024 0.10268264 -0.046330724 -0.2888956 0.03410126 -0.1569108 -0.08489604
-0.20047586 -0.03955459 -0.0004674453 -0.15485181 -0.055774692 0.0660452 0.07049099 -0.04675405
0.09890655 -0.29000023 -0.4353237 0.09345393 0.07317509 -0.29066515 0.0075773746 0.048332952
-0.02739282 0.20296024 0.010687237 0.080258645 -0.3188058 0.0771742 -0.43812108 0.078753844
0.07586694 0.04568169 -0.0074367337 -0.078714594 -0.045845017 0.096648335 0.03556533 0.10535955
0.05311251 0.15111302 -0.1792408 -0.042119995 0.015871705 -0.17862786 -0.06039803 -0.04430085
0.19693172 -0.15647389 -0.28008854 -0.35407433 -0.2174921 -0.018856576 0.44472933 0.12756136
0.06202972 -0.38762638 -0.3522414 -0.0016949968 0.022888323 -0.041539844 -0.035954967 -0.25728363
-0.050740767 -0.32249093 -0.60331315 -0.31597137 -0.20735492 -0.07756965 0.16916713 0.01605873
-0.055833474 0.04108919 0.077424645 0.16118108 0.287608 -0.47189364 -0.17152075 -0.047202814
-0.27871734 -0.20160131 -0.038430817 -0.20548576 -0.4306339 -0.22327375 0.0075248247 -0.31191078
-0.23771627 0.07831536 -0.061192457 0.055309277 0.008252903 -0.047985036 -0.01949978 0.1247614
-0.65774524 0.10340549 -0.00013398085 0.05647391 0.03144377 -0.39118555 0.3138149 -0.36679703
-0.3906038 -0.16468245 0.062236212 0.0033343963 -0.30815482 0.07554583 0.24021007 -0.46207082
0.119056456 0.16337548 -0.34788853 0.2108042 0.01819443 0.5711776 -0.765186 0.015583301
0.5026277 -0.46815363 -0.16923651 0.13314344 0.14844875 -0.31988344 -0.13993435 0.3400542
-0.36819756 -0.04433371 -0.30114484 0.0035209446 0.045514815 -0.019688332 -0.4201474 0.011113595
-0.028863164 0.12517574 -0.07138964 0.22969803 0.08970423 -0.040505294 0.05974014 0.05875277
0.020329202 0.35190603 -0.13282247 -0.03549315 0.06820793 -0.22962745 0.26890984 0.08350231
0.18838005 0.26734266 -0.08493825 0.0033338764 -0.25635257 0.20211482 -1.0520221 -0.081828296
-0.33234185 -0.16936018 -0.05930267 -0.3329726 -0.008115141 0.21806589 -0.059476208 -0.1464341
-0.1290163 -0.42981505 0.4603127 -0.16045225 0.0972428 0.24226794 -0.44263026 0.0525671
00000000: acff 8f3d ed6d 44be 48d9 803d 9355 83bc
00000010: 720f 2c3e 64f2 9abd 0e72 d7be fcf9 62be
00000020: 6498 7abd 23e7 863e f887 313e af3b aabd
00000030: 86eb 863d 4db9 b9bd 5940 973c d8df 9d3d
00000040: e52d 1fbe 690f 9f3d dfe8 473e c49b c73d
00000050: 2bf0 93bd f7ce 3dbd 7943 b0bd 152a 54bd
00000060: ada3 833b 1a3a c4bd f295 953c bf1a d83d
00000070: 7ca2 5cbe 3397 e3be 9ee3 933e 39c5 973c
00000080: b9e0 4c3d 9ff7 de3d bdc7 14be 3b6d cabe
00000090: 256c 66be 3446 b4be b237 d2bc ec0f 3b3e
000000a0: 9b1a aa3d 45ab 2fbe b629 3b3e a913 a23d
000000b0: 9720 053e 959c efbc 5e89 11be fef9 b63d
000000c0: 7f44 06be 175a 20bc edd8 6abc 3521 5a3d
000000d0: 4c46 753d 0a04 09bf 9c26 05be 43b8 853d
000000e0: 5eaa d93d c7ba b93c 15aa b43d 92ba 193e
000000f0: 7c6d 50bd 0f0a 75bd 7794 0dbe a313 aebe
00000100: 2cbd 3a3e 7dd3 81bd 1ddb acbe f9f4 09be
00000110: f306 523e d3ce b5bd 97eb 12bf b180 83bd
00000120: 501a 753e 214f 323e 4dce fc3c be1b d93c
00000130: 1821 3d3c 1043 48be 0ff6 b93d 9d14 493e
00000140: 655c cd3d 7c82 efbc 474b d23d 49c5 3dbd
00000150: 20ea 93be c3ad 0b3d 3aad 20be fadd adbd
00000160: 8b49 4dbe fe03 22bd 7213 f5b9 7991 1ebe
00000170: 0174 64bd b542 873d 955d 903d 2d81 3fbd
00000180: 848f ca3d e97a 94be bfe2 debe c664 bf3d
00000190: d2dc 953d 10d2 94be a04b f83b c6f8 453d
000001a0: e866 e0bc cfd4 4f3e 8519 2f3c a55e a43d
000001b0: 843a a3be 820d 9e3d 6851 e0be b249 a13d
000001c0: 2060 9b3d b91c 3b3d d8af f3bb 1e35 a1bd
000001d0: fcc7 3bbd 90ef c53d f4ac 113d bfc6 d73d
000001e0: 818c 593d 5fbd 1a3e e68a 37be 0486 2cbd
000001f0: 6105 823c 39ea 36be ed63 77bd cf74 35bd
00000200: 78a8 493e b13a 20be c467 8fbe 3b49 b5be
00000210: 40b6 5ebe 1b79 9abc 90b3 e33e 729f 023e
00000220: e012 7e3d f776 c6be fc58 b4be a82a deba
00000230: 4b80 bb3c af25 2abd 8445 13bd aeba 83be
00000240: 8dd5 4fbd 881d a5be bb72 1abf 00c7 a1be
00000250: d954 54be d6dc 9ebd 263a 2d3e 998d 833c
00000260: a4b1 64bd 234d 283d d090 9e3d a70c 253e
00000270: 5b41 933e 0b9c f1be 23a3 2fbe bd57 41bd
00000280: 0ab4 8ebe 9370 4ebe a269 1dbd dc6a 52be
00000290: 0c7c dcbe e0a1 64be ce92 f63b c5b2 9fbe
000002a0: e56b 73be ce63 a03d f1a4 7abd fb8b 623d
000002b0: 2f37 073c f58b 44bd 01be 9fbc e882 ff3d
000002c0: fe61 28bf 42c6 d33d 367d 0cb9 3051 673d
000002d0: 2fcb 003d 7949 c8be 59ac a03e d2cc bbbe
000002e0: 39fd c7be 84a2 28be 66eb 7e3d e385 5a3b
000002f0: 78c6 9dbe c6b7 9a3d a1f9 753e 8c94 ecbe
00000300: dfd3 f33d e74b 273e 721e b2be 0edd 573e
00000310: 7c0c 953c b238 123f 3be3 43bf 1a51 7f3c
00000320: 35ac 003f d5b1 efbe 564c 2dbe c156 083e
00000330: f302 183e c3c7 a3be f34a 0fbe 961b ae3e
00000340: 6484 bcbe 4497 35bd a82f 9abe a6bf 663b
00000350: be6d 3a3d 6d49 a1bc 8f1d d7be cc15 363c
00000360: 7172 ecbc 122e 003e bb34 92bd f635 6b3e
00000370: dab6 b73d e1e8 25bd 14b2 743d bfa6 703d
00000380: 6d89 a63c 072d b43e 9d02 08be 4461 11bd
00000390: 99b0 8b3d 7523 6bbe 8dae 893e 4203 ab3d
000003a0: b3e6 403e 23e1 883e 1bf4 adbd 2a7d 5a3b
000003b0: a540 83be 30f7 4e3e a9a8 86bf 9895 a7bd
000003c0: b628 aabe c16c 2dbe 5be7 72bd 627b aabe
000003d0: 5ef5 04bc aa4c 5f3e 539d 73bd d2f2 15be
000003e0: d91c 04be b810 dcbe 1bae eb3e 984d 24be
000003f0: 3c27 c73d 1615 783e 6fa0 e2be 9950 573d

linear_relu_stack.2.bias f4 [10]
0.044904154 -0.30258617 0.09022816 0.16276817 -0.2790145 0.18725617 0.17513776 0.19309482
-0.26840213 -0.32620415
00000000: 6bed 373d 93ec 9abe 8bc9 b83d b3ac 263e
00000010: fdda 8ebe 15c0 3f3e 5057 333e a6ba 453e
00000020: 016c 89be 3b04 a7be
